backend/data/jbf_module.pth (torch, 47925 bytes, 9 tensors)

W.DB_age f4 [1, 16]
00000000: c2b8 83be 1c99 cf3c f07f b13d a4dd 99bf
00000010: c448 133d 983d 1ebf 3cee 3e3f 1043 c43e
00000020: 0a60 2e3e d82a ad3c 3daa 813b 7c88 6cbf
00000030: 0d15 303f a65c 83bf 6a3c dbbf 03b0 5c3f
-0.25726897 0.025341563 0.0866698 -1.2020764 0.035958067 -0.61812735 0.74582267 0.38332415
0.17028823 0.021138594 0.0039570616 -0.9239576 0.6878212 -1.0262649 -1.7127812 0.8620607

W.DB_gender f4 [1, 16]
00000000: a49d 4dbe 737c 8a3f 4410 82bf e708 0d3e
00000010: 9502 433d a522 9bbd 1238 313e eff8 cf3f
00000020: ae98 0040 44b2 ae3e f9a1 86bf 047d aa3e
00000030: 7fcb 8dbf c92d 8fbf 46de d73d 8116 f73f
-0.20079666 1.0819229 -1.0161214 0.13772927 0.047609884 -0.07574967 0.17306545 1.6247844
2.0093188 0.3412038 -1.051818 0.33298504 -1.1077727 -1.1185848 0.10540442 1.9303743

W.DB_occupation f4 [1, 16]
00000000: dcbf b2bf a10d ba3f 82da 58bf 5497 92bf
00000010: 0639 1b3f b857 90bf 3b90 993e 02f2 39c0
00000020: 776f c8be 054f d1be 8a86 9d3e 5e7f a23e
00000030: 90b7 d73e 09e9 1d40 642b a33e e048 f3be
-1.3964801 1.4535409 -0.84708416 -1.1452432 0.60633886 -1.127677 0.29992852 -2.905396
-0.3914754 -0.408806 0.30766708 0.31737798 0.42132235 2.4673483 0.31869042 -0.47516537

W.DB_zipcode f4 [1, 16]
00000000: 1dae 523f 4f75 a0bf 9bda 8ebf b741 7abf
00000010: 6467 a8bf 5780 50bf 9a0e 113f e0f6 d63f
00000020: 27ef 543e 9304 2a3f edde aabe 3c1f f83e
00000030: bf8a 8dbf f7cd 82bf a66d 9dbf 9b01 fdbe
0.82296926 -1.25358 -1.1160463 -0.9775652 -1.3156552 -0.8144583 0.56662905 1.679409
0.20794354 0.6641323 -0.33373204 0.4846133 -1.1057967 -1.0219105 -1.2299087 -0.49415287

W.IB f4 [1, 16]
00000000: d2ce 96be 3e22 1bbf 979e e83e 7826 2cbf
00000010: 3c87 88bf 059f a43e 10fa e43f f815 c6bf
00000020: 8112 ce3d 96af bd3f 39f7 44bf 62d1 b3bd
00000030: 3bf7 443e 4965 23c0 96be 623f c1e7 bb3e
-0.29454666 -0.60599124 0.45433494 -0.672462 -1.066627 0.32152572 1.7888813 -1.5475454
0.10062123 1.481921 -0.7693973 -0.08780171 0.19234936 -2.553057 0.8857206 0.36700252

W.PB f4 [1, 16]
00000000: 50ef 9dbf 47c2 663d 3b57 dbbf dc90 07c0
00000010: 8140 1440 984b 093f 3948 3b3f 6f54 ddbf
00000020: 74b8 fc3b 5ad7 103f 2301 afbf 2b4e 24bf
00000030: 427d 023f e678 bbbe 1e2c 8fbf f656 9ebd
-1.2338657 0.05633762 -1.7135996 -2.1182165 2.316437 0.5363097 0.7315708 -1.7291392
0.007712418 0.565786 -1.3672222 -0.64181775 0.5097238 -0.36615676 -1.1185338 -0.0773143

interaction_layer.0.weight f4 [32, 336]
00000000: 76fa e2bc c74b d5bc a910 b5bc cc37 44bb
00000010: 9a00 043d 543f 13bd b66b 53ba b2ba 80bc
00000020: 7d8e 17bb 5a3c 213b 69ab 623b 72ed 083d
00000030: 0536 843c 7016 d5bc afae 35bd cc0b c43c
00000040: 216b 08bd 0e91 a33c 908d 1f3d 336b a5bc
00000050: 8dce 353d 9777 263d 77ac b63c 825b 1d3d
00000060: 13ca 0a3c 3d28 403d 03b9 17bd 4704 0dbd
00000070: 8cee 39bd 7c37 3fbd 7e5f fabc 6ac3 55bd
00000080: 728b 6a3c bec6 18bd 8c8d fb3c 64e0 db3c
00000090: 2027 113b d1bf 0abc 62e5 02bd da01 15bc
000000a0: 352c a9bc 0b47 ae3c 2b72 b3bc f773 b83c
000000b0: e916 903c 218a db3b b950 48bd 0cb0 163d
000000c0: 328e b3bc 89f0 853c 1bf3 113c 80d5 f83c
000000d0: b799 09bd 4141 e03b 34e1 57bd 3b89 52bd
000000e0: 9a42 fb3c 9c28 51bd 046f 5b3d 8ed4 c5bb
000000f0: 2abb 2cbd 95d8 5a3c cd58 2cbd 0092 903c
00000100: 7489 3c3d fef7 23bd 3ff7 15bd 23d5 fa3c
00000110: 84c6 31bd 62b6 d7bc cb1b 3cbd a0ad 0cbd
00000120: 33b9 fcbc b546 5abd 3212 1c3c 2ea0 fe3c
00000130: cb69 e73a bb03 05bc dc87 9bbc 9905 21bd
00000140: eb87 893c f617 67bb 7042 08bd 9e87 2bbd
00000150: 32e1 cfbc 729b e5bb dc58 36bd 9fba 973b
00000160: 9969 c6bb 4a84 533c b77e 87bb b379 55bc
00000170: f33e ed3c fc8f 143d 89bc 3dbd 8e59 24bd
00000180: 32ae 1cbd 8408 12bd e582 b5bc 765a 293d
00000190: d884 023d 87f5 2abd 6d27 5fbd 11c9 8e3c
000001a0: de0b 733c 0a67 2abc d818 0bbd be40 013d
000001b0: e615 a7bc 2aef c9ba 4dda 293d e74c d73c
000001c0: 5acf a03b 3fb0 043d da49 2fbd 0306 453c
000001d0: 4979 41bd 1d74 89bc e302 e43b 91ee 403b
000001e0: 2f6d 1fbb 7d4b 9dbc 809d bbbc 76e8 20bd
000001f0: b2d9 5b3c 7d18 cfbc f149 fbbc 91b1 52bd
00000200: 8df4 91bc bed0 1ebd 02bc aabb f46a c43c
00000210: 28df c83b ca51 2dbd 20ca 1cbd 1a2d 443a
00000220: 0daf cd3b b7bc 1cbd 27ee 75bc 1902 1cbd
00000230: a5f2 5a3d c2e4 b3bc 394d 003d 8503 5bbd
00000240: f829 c8bc a634 1c3c ac34 26bd 92e5 e9bc
00000250: 5492 513d 2032 1cbd 8633 7e3b 79bb 5bbd
00000260: 8ebc b2bc f443 c6bb 0845 283c 0f8e afbc
00000270: 55bf 3d3c 7e30 fa3c c59d ec3c c58f babc
00000280: 5995 a03c 4fdf 4bbc 55e9 5d3d fea0 16bd
00000290: 6495 423d 5a24 8ebc 9621 29bd e0d6 c4ba
000002a0: 9e58 e0bc 1f2f 563d a3ff b0b9 c68f 113d
000002b0: 914e d33c 5934 493d bf56 493d dd30 84bc
000002c0: d360 56bd d69a 02bd a12b 21bc d97f afbb
000002d0: cd75 c33c 12d3 5abd f1dc 5d3d 9497 353d
000002e0: 4a6e 393d 66a0 1f3d 9c70 e83c a8a1 40bd
000002f0: 96e0 94bc 39ac 643b 9f67 06bd 6163 1d3d
00000300: ff5f 093d d7c6 3c3d bb1c f13c 6ab2 423c
00000310: df92 1bbd 8242 143d 94ac bd3c fde5 10bb
00000320: bcba a7ba 5eec 06bd b0a3 063d e0e9 02bd
00000330: 1b40 0a3c 8a1c 723b 7b79 44bc 386e 93bc
00000340: 7632 f0bc 036f 37bd 7684 6a3c b96e eaba
00000350: 6aa7 143d f369 e1bc a28f 5b3d 821c 20bd
00000360: 1706 8dbc b975 533c 87a7 493d 42f6 f03c
00000370: 83a4 023d e5e1 f03c 09be b8bb 2505 823c
00000380: f3c9 0bbd 2798 583d f670 40bd 241c 9c3c
00000390: 2d3d 28bc 70eb bd3c c42e dabc dd0b afbb
000003a0: 9259 ff3b 7af3 12bd b4d6 8ebc 5896 313d
000003b0: af49 68ba 1a7a 083c c8e3 dd3c b5fd 00bd
000003c0: a198 78bc bfc4 45bd e2c7 57bd c860 7cbc
000003d0: 1cda b7b9 b6ad 793c 4b1f 403d ae85 4f3d
000003e0: 9e13 3c3d faf8 a93b b938 5e3d 8f09 263d
000003f0: bcaf 02bd ae4d 9e38 8e5a b93b 958b b13c
-0.02770732 -0.02603711 -0.02210267 -0.0029940484 0.032227136 -0.035949066 -0.00080650614 -0.015714023
-0.00231257 0.0024602623 0.0034587032 0.03342957 0.01613904 -0.026011676 -0.044356044 0.023931406
-0.03330529 0.019966628 0.038953364 -0.020192718 0.044386435 0.040641394 0.022299035 0.038417347
0.00847103 0.046913374 -0.037041675 -0.034427907 -0.04539351 -0.046683773 -0.030563112 -0.052188314
0.014315473 -0.03729891 0.030707143 0.026840396 0.0022148564 -0.008468584 -0.031957038 -0.00909468
-0.020650962 0.02127411 -0.021905025 0.022516234 0.01758905 0.006699816 -0.048905108 0.036788985
-0.02191839 0.016350048 0.0089080585 0.030375242 -0.03359386 0.0068437164 -0.052705005 -0.051400404
0.030671407 -0.05106412 0.05357267 -0.0060373014 -0.04217068 0.013357301 -0.042076875 0.017647743
0.046029523 -0.040031426 -0.036612745 0.03061921 -0.04340221 -0.026332084 -0.045924943 -0.03434527
-0.030850029 -0.053290088 0.0095258225 0.031082239 0.001765543 -0.008118565 -0.018985681 -0.03931198
0.016788444 -0.0035262085 -0.033266485 -0.04187738 -0.025375936 -0.007007056 -0.044518337 0.0046304013
-0.0060550687 0.012909958 -0.0041349786 -0.013029504 0.02896068 0.036270127 -0.04632238 -0.04012447
-0.038252063 -0.035652652 -0.022157142 0.041346036 0.03186497 -0.04173806 -0.05448096 0.01742986
0.014834372 -0.010400543 -0.03395924 0.031555884 -0.020396184 -0.001540636 0.041467953 0.026281787
0.0049075307 0.032394644 -0.04279504 0.012025359 -0.047234807 -0.016779 0.006958352 0.0029439072
-0.0024326553 -0.019201035 -0.02290225 -0.039284192 0.013418602 -0.025280232 -0.030674906 -0.05143887
-0.017816806 -0.03877329 -0.0052104006 0.02397678 0.006130118 -0.04231433 -0.0382787 0.00074835273
0.006276971 -0.03826591 -0.015010393 -0.038087938 0.05345406 -0.021959666 0.031323645 -0.053470153
-0.024434075 0.009534037 -0.040577576 -0.02855185 0.05116494 -0.03813374 0.0038788035 -0.053645585
-0.021818426 -0.006050581 0.010270365 -0.021430044 0.011581262 0.030540701 0.028883824 -0.022773633
0.019602465 -0.012443378 0.0541776 -0.036774628 0.04750575 -0.017351318 -0.041291796 -0.0015017651
-0.027386006 0.052291032 -0.000337598 0.035537504 0.0257943 0.04912219 0.049154993 -0.016136581
-0.052338433 -0.031885944 -0.009837062 -0.005355817 0.023859883 -0.05342395 0.054165784 0.04433401
0.045271195 0.038971327 0.028374009 -0.047029167 -0.018173497 0.0034892692 -0.032813665 0.038424853
0.033538815 0.046088066 0.029432645 0.011883358 -0.037981864 0.03619624 0.02315358 -0.002210974
-0.001279674 -0.03294026 0.03287095 -0.03196132 0.0084381355 0.003694328 -0.011991854 -0.017996892
-0.029320937 -0.044783603 0.014313808 -0.0017885781 0.03629247 -0.02751634 0.053603776 -0.039089687
-0.017214818 0.012906485 0.049232032 0.0294143 0.03189517 0.02940459 -0.0056378883 0.015871594
-0.03412814 0.05287948 -0.046982728 0.019056387 -0.010268492 0.023183554 -0.026633628 -0.0053419904
0.00779266 -0.03587673 -0.017436363 0.04335627 -0.00088610774 0.0083298925 0.027086154 -0.031491954
-0.015173108 -0.048283335 -0.052680857 -0.015403934 -0.00035066984 0.01523917 0.046904843 0.050664596
0.045917146 0.005187151 0.054253314 0.04053646 -0.031905875 7.548496e-05 0.005656547 0.021673003

interaction_layer.0.bias f4 [32]
00000000: fa08 a93c 20fd 53bc 80c3 97bc 353e 503d
00000010: 7083 a03c ed0a aabc f9bd 16bd 2b0f 02bd
00000020: 18ca a2bc 09cb cebc a6d7 9e3b 6781 37bb
00000030: 7d0a 3fbd 85f1 a83c 2e48 8a3b d5e2 e4bc
00000040: fd91 7cbc a64a 7f3c 26ba 883a 660b af3c
00000050: c9db 44bc 596c f33c f36b 8bbc c790 d4ba
00000060: b327 a23b f3ce f5bb 8f9d 01bc 18a6 e2bc
00000070: eb3d 153b 0bbc 1abd 982a e23c 0408 063d
0.020634163 -0.012938768 -0.018525839 0.050840575 0.019593924 -0.020757163 -0.036802266 -0.031752747
-0.019871756 -0.0252433 0.0048474846 -0.0028000714 -0.04664086 0.020622978 0.0042200303 -0.027940193
-0.015415666 0.015581762 0.0010431453 0.02136774 -0.0120152915 0.02971475 -0.017019248 -0.0016217463
0.00494858 -0.007501477 -0.0079111 -0.02766709 0.0022772502 -0.037776988 0.0276082 0.032722488

interaction_layer.2.weight f4 [1, 32]
00000000: 246b 17be d988 2a3e 4d2f 1abe 89a9 d3bd
00000010: f304 a4bd 1245 68bd 5d77 323e 8e69 d93d
00000020: 0ccc 933c 97c1 c4bd b0a6 0bbe 284f 733d
00000030: 8394 6c3d 0a6d 10be 7a14 b6b8 ce78 803d
00000040: 8b8d 253e 29cc 25be 82fb 09be ad4d 31be
00000050: a307 1abe eb0a bb3d 623b 963d 7f7e 2e3d
00000060: 4f62 2d3e d6dc 89bd 7d93 a63d 3672 253e
00000070: 2ab8 d33d f647 ccbd 9d77 a43b e28b 51bd
-0.14786965 0.16653766 -0.15057106 -0.10335071 -0.080087565 -0.056706496 0.17428346 0.10615836
0.018041633 -0.09607237 -0.13637805 0.05940166 0.05775882 -0.14104095 -8.68225e-05 0.06273042
0.16167276 -0.16191162 -0.13474849 -0.17314787 -0.15041976 0.09132942 0.07335545 0.042601105
0.16932033 -0.06731574 0.081336 0.1615685 0.10337861 -0.09974663 0.005019142 -0.051158793
