backend/data/jbf_module.pth (torch, 47925 bytes, 9 tensors)

W.DB_age f4 [1, 16]
0.20141709 -0.8045425 1.3664236 -1.3695679 0.5666011 0.7886085 -0.82868177 2.0788198
-1.5186791 0.123517945 0.5216875 -0.09077818 0.8058166 1.1475599 0.5501549 -0.64218074
00000000: 4840 4e3e 7ff6 4dbf f8e6 ae3f 004e afbf
00000010: c50c 113f 3fe2 493f 7d24 54bf 620b 0540
00000020: 1464 c2bf faf6 fc3d 508d 053f e9e9 b9bd
00000030: ff49 4e3f 3ee3 923f f4d6 0c3f f565 24bf

W.DB_gender f4 [1, 16]
-0.4128794 1.5209216 -1.8926297 -0.64189315 2.2136655 0.5501168 0.27689013 1.4213231
1.9096235 0.743302 1.6051381 0.2575417 -1.7196541 1.0736071 1.1929604 -0.4933398
00000000: ee64 d3be 8fad c23f b141 f2bf 1c53 24bf
00000010: b2ac 0d40 74d4 0c3f 8bc4 8d3e eaed b53f
00000020: 8b6e f43f 0a49 3e3f 2a75 cd3f 81dc 833e
00000030: a01d dcbf f56b 893f edb2 983f 0997 fcbe

W.DB_occupation f4 [1, 16]
1.4201345 -1.6484991 0.47041485 1.6141137 0.5847309 -0.2968251 -1.0715109 -0.16664708
0.7543837 0.19178197 -0.47254413 0.06534945 -0.889323 0.8353349 0.24163336 -0.5849086
00000000: f8c6 b53f 0502 d3bf 37da f03e 479b ce3f
00000010: edb0 153f 76f9 97be 4527 89bf 88a5 2abe
00000020: 4a1f 413f 7e62 443e 4ef1 f1be efd5 853d
00000030: acaa 63bf 82d8 553f bc6e 773e 92bc 15bf

W.DB_zipcode f4 [1, 16]
0.15521397 1.2781991 -0.8267056 0.32675326 1.2289532 0.8016953 1.1514859 0.05320173
0.6689549 0.6757141 -0.5825809 -2.2428014 -0.800615 0.1389503 0.22260797 1.1382976
00000000: 69f0 1e3e 079c a33f faa2 53bf 344c a73e
00000010: 574e 9d3f e73b 4d3f e463 933f 0fea 593d
00000020: a140 2b3f 99fb 2c3f 0624 15bf 0f8a 0fc0
00000030: 1bf5 4cbf fd48 0e3e 58f3 633e bcb3 913f

W.IB f4 [1, 16]
-0.2189953 0.10625536 -0.29399773 0.40578875 -0.07854621 1.5689552 -1.1376615 -2.6281354
-0.38398656 -0.372953 1.4000915 -0.8118888 -0.10110208 -0.5095743 -0.9558747 -0.04837237
00000000: 4e40 60be 699c d93d df86 96be 8bc3 cf3e
00000010: d6dc a0bd 86d3 c83f e49e 91bf 5f33 28c0
00000020: e399 c4be b2f3 bebe 3336 b33f f2d7 4fbf
00000030: 9b0e cfbd 7673 02bf 34b4 74bf 1b22 46bd

W.PB f4 [1, 16]
-0.28678015 0.54969305 0.11697111 -0.6263838 -1.7897975 -0.7946825 0.091489434 0.74862504
-0.33903486 -0.32862705 -1.2901733 -0.1290908 -0.69647044 -0.17447253 0.42183167 -0.3602377
00000000: d9d4 92be afb8 0c3f 8d8e ef3d b05a 20bf
00000010: 1618 e5bf 5070 4bbf d05e bb3d e4a5 3f3f
00000020: fa95 adbe ce41 a8be 6624 a5bf 6130 04be
00000030: e34b 32bf eda8 32be 52fa d73e 1371 b8be

interaction_layer.0.weight f4 [32, 336]
-0.05399394 -0.009464216 0.017488644 0.035341855 0.03474585 -0.03200289 -0.027771577 -0.043545708
0.005218729 0.010309742 -0.027395364 -0.0404924 0.017194947 0.025291925 -0.05834883 0.042064473
-0.011416142 0.04181613 0.015716733 -0.04382945 -0.034898374 -0.0366761 0.034513805 -0.0041572973
0.043056305 0.037810963 -0.056527894 -0.035405897 0.028724207 -0.062447153 -0.020006904 0.058526315
-0.010012527 -0.038520385 0.023010476 -0.02882234 0.0052470886 -0.04270945 0.017465942 0.016879681
-0.018002708 -0.023308057 -0.018776016 0.0057657375 0.0070324973 0.023384873 0.00845754 0.021235714
-0.05486687 0.016622646 0.024990726 -0.052757014 0.043890845 0.042110298 -0.0022837932 -0.009738845
0.01999943 -0.039071545 0.03247853 0.054243617 0.045587484 0.037163615 0.030953132 -0.051196996
-0.006996142 0.00088163145 -0.02103509 -0.03634296 0.03747657 -0.04137582 -0.014935147 0.058008663
0.00766564 0.032360666 -0.042718463 -0.009953351 -0.02738977 -0.039845236 -0.02436571 -0.009797993
-0.028077865 -0.020854747 -0.019708436 -0.042608142 0.034828577 0.053736724 0.005754819 -0.04539981
-0.0152123775 0.020595921 0.0016903747 0.021017335 -0.02920744 -0.012793634 0.008080303 -0.021868166
-0.021539317 -0.017652366 -0.019079162 -0.02903207 -0.04756507 -0.06227522 0.030942982 0.00019179177
0.022080882 -0.03514205 -0.022433365 0.052101523 0.037868224 -0.05660964 -0.055249676 0.0015539567
0.013455691 -0.056934614 -0.039159007 0.04767719 -0.03762166 0.033144467 -0.012388895 0.0034441825
0.0425992 0.006706302 -0.032950565 -0.040653955 0.014833818 0.009328874 0.0271982 -0.0019903653
-0.04892247 -0.012461408 0.025068048 -0.04075647 -0.0010322848 0.0016507951 0.025725516 0.03460248
0.0055456576 0.02211354 0.010061386 -0.02422084 0.021997994 0.03398278 -0.03431772 -0.046094164
0.06046653 -0.00012217247 0.05052252 0.05900283 0.004393229 -0.044707477 0.041789047 -0.007043791
-0.0385409 -0.032447767 -0.055624645 0.025625685 0.05649604 -0.040303376 -0.025635445 -0.03938491
-0.032848906 0.05167254 -0.0017058275 0.023926299 -0.022513049 0.04789117 0.053564858 0.03911294
0.02765367 -0.032226223 -0.001785849 0.012726554 -0.01690795 -0.014267864 0.029464666 0.004243939
0.046657577 0.04982284 -0.024546636 -0.04317257 0.024518626 0.02277231 -0.023654466 0.0402112
0.021711033 -0.06131282 -0.02527468 0.044986196 0.016473012 -0.020700412 0.02358828 -0.03648738
-0.03831938 0.039232034 -0.021916287 0.011713081 -0.03361469 -0.0378206 0.028374385 -0.023017801
0.024704952 -0.046075188 -0.007167217 -0.0036014523 0.019293427 0.03422534 0.039840944 -0.04220823
0.03158818 -0.018891504 0.012116607 0.025241096 0.006559214 -0.051548842 -0.028606864 0.037867464
-0.009711859 -0.013614404 0.020869685 0.009758982 0.015565958 -0.023633925 0.04276907 -0.004893728
-0.0073356847 0.0015699109 0.060723133 0.035938226 -0.004689481 0.04391802 0.0030590256 0.008793497
0.036712803 0.018329276 -0.0077609457 0.0069182795 0.026429737 0.06115021 0.019832296 -0.00491425
-0.0022100715 0.0034307868 0.06106728 0.004035474 -0.05752385 -0.0068064304 -0.012583281 0.0068256995
0.026479593 -0.014637799 -0.02273407 -0.043656345 0.021656075 -0.010530742 -0.043418597 -0.007098204
00000000: c028 5dbd cd0f 1bbc 5844 8f3c 9fc2 103d
00000010: aa51 0e3d 7615 03bd 3881 e3bc fc5c 32bd
00000020: df01 ab3b 31ea 283c 3e6c e0bc 5cdb 25bd
00000030: 6bdc 8c3c 0331 cf3c 2fff 6ebd cc4b 2c3d
00000040: c50a 3bbc 6447 2b3d 61c0 803c 8286 33bd
00000050: 99f1 0ebd ae39 16bd 595e 0d3d f039 88bb
00000060: cf5b 303d abdf 1a3d cb89 67bd c605 11bd
00000070: 074f eb3c 96c8 7fbd 85e5 a3bc 4ab9 6f3d
00000080: 950b 24bc 8dc7 1dbd 7780 bc3c d41c ecbc
00000090: c5ef ab3b 1bf0 2ebd bc14 8f3c 4247 8a3c
000000a0: 6a7a 93bc 8af0 bebc 29d0 99bc 83ee bc3b
000000b0: dd70 e63b a291 bf3c 7e91 0a3c 85f6 ad3c
000000c0: 15bc 60bd 372c 883c 5ab9 cc3c bd17 58bd
000000d0: e3c6 333d d97b 2c3d b1ab 15bb ad8f 1fbc
000000e0: d8d5 a33c 7c09 20bd 3508 053d 8e2e 5e3d
000000f0: f1b9 3a3d e038 183d 6c91 fd3c f1b3 51bd
00000100: e53f e5bb 491d 673a c851 acbc 5bdc 14bd
00000110: 0881 193d b179 29bd 8cb2 74bc 7e9a 6d3d
00000120: 0d30 fb3b 9e8c 043d 8ef9 2ebd 6113 23bc
00000130: 8360 e0bc c234 23bd 999a c7bc c387 20bc
00000140: 8d03 e6bc 93d7 aabc 9673 a1bc e085 2ebd
00000150: 69a8 0e3d 0a1b 5c3d ec92 bc3b 27f5 39bd
00000160: 563d 79bc c7b8 a83c 908f dd3a 8c2c ac3c
00000170: 7144 efbc 649c 51bc 3f63 043c de24 b3bc
00000180: 3973 b0bc b29b 90bc e74b 9cbc aad4 edbc
00000190: 97d3 42bd 4d14 7fbd 237c fd3c b61b 4939
000001a0: f7e2 b43c 1cf1 0fbd 2dc6 b7bc 6868 553d
000001b0: b61b 1b3d 83df 67bd 7c4d 62bd 22ae cb3a
000001c0: 4275 5c3c 4534 69bd 3265 20bd 2849 433d
000001d0: 2b19 1abd 7ec2 073d cbfa 4abc cbb7 613b
000001e0: 807c 2e3d 8ac0 db3b 2cf7 06bd c384 26bd
000001f0: 8b09 733c 22d8 183c c2ce de3c ca70 02bb
00000200: ee62 48bd ef2a 4cbc 825b cd3c 42f0 26bd
00000210: bb4d 87ba 7e5f d83a 51be d23c 54bb 0d3d
00000220: 59b8 b53b 7427 b53c 83d8 243c c86a c6bc
00000230: 2335 b43c 8731 0b3d bd90 0cbd 3ccd 3cbd
00000240: c1ab 773d 6c1b 00b9 b4f0 4e3d f4ac 713d
00000250: 13f5 8f3b 301f 37bd fe2a 2b3d 9acf e6bb
00000260: 10dd 1dbd f3e7 04bd abd6 63bd f5ec d13c
00000270: 6468 673d 2715 25bd 6d01 d2bc 1252 21bd
00000280: 938c 06bd 96a6 533d 1396 dfba 1601 c43c
00000290: 496d b8bc 8829 443d d366 5b3d e434 203d
000002a0: f389 e23c a5ff 03bd 2613 eaba 0983 503c
000002b0: 8b82 8abc c2c3 69bc e25f f13c be10 8b3b
000002c0: 041c 3f3d 0913 4c3d 0716 c9bc b9d5 30bd
000002d0: 49db c83c ff8c ba3c 03c7 c1bc 80b4 243d
000002e0: 56db b13c 2723 7bbd d90c cfbc 7243 383d
000002f0: 69f2 863c e993 a9bc 353c c13c ca73 15bd
00000300: c8f4 1cbd c5b1 203d c989 b3bc 39e8 3f3c
00000310: 8faf 09bd c6e9 1abd 6671 e83c d48f bcbc
00000320: 0a62 ca3c 56b9 3cbd f9da eabb 5806 6cbb
00000330: 400d 9e3c df2f 0c3d 4230 233d 89e2 2cbd
00000340: 9c62 013d 5bc2 9abc bc84 463c 6ac6 ce3c
00000350: adee d63b e124 53bd f158 eabc ea1a 1b3d
00000360: 7d1e 1fbc f30e 5fbc e7f6 aa3c 23e4 1f3c
00000370: 5c08 7f3c ef9b c1bc 9f2e 2f3d 915b a0bb
00000380: 2f60 f0bb 78c5 cd3a d2b8 783d f633 133d
00000390: 38aa 99bb 62e3 333d ef79 483b 9a12 103c
000003a0: 2a60 163d 4727 963c 884f febb bcb2 e23b
000003b0: 2d83 d83c a578 7a3d 5777 a23c b807 a1bb
000003c0: d9d6 10bb 0dd7 603b af21 7a3d 023c 843b
000003d0: 219e 6bbd 7a08 dfbb 1b2a 4ebc 1eaa df3b
000003e0: bbeb d83c 61d3 6fbc cd3c babc ffd0 32bd
000003f0: 1568 b13c 2289 2cbc b3d7 31bd 0d98 e8bb

interaction_layer.0.bias f4 [32]
0.009535184 -0.051160075 0.14846338 0.30656362 0.002523063 0.11876708 -0.017158624 -0.020994881
-0.05699923 0.10277768 -0.05657501 0.15393355 0.007984553 0.09889588 0.00721639 0.14320739
0.17503804 0.0919271 0.017216263 0.1634157 0.00020244367 0.17753237 -0.047674157 0.10824155
-0.04359219 0.11372516 0.09560432 0.1926723 0.12212224 0.15809786 -0.039175905 -0.04172322
00000000: 7639 1c3c 3a8d 51bd c906 183e e8f5 9c3e
00000010: f959 253b 283c f33d 3e90 8cbc 75fd abbc
00000020: 0678 69bd 1b7d d23d 33bb 67bd c2a0 1d3e
00000030: a5d1 023c ec89 ca3d 7877 ec3b f5a4 123e
00000040: 2c3d 333e 4744 bc3d 1f09 8d3c 7256 273e
00000050: 0f47 5439 0ccb 353e fa45 43bd bfad dd3d
00000060: b98d 32bd bde8 e83d 33cc c33d e34b 453e
00000070: 3a1b fa3d 68e4 213e ea76 20bd f8e5 2abd

interaction_layer.2.weight f4 [1, 32]
0.042289298 -0.0011836942 -0.20457254 -0.12316423 0.01864057 -0.1787998 0.0555953 0.124194644
0.069174685 -0.20656076 0.11777417 -0.14065492 0.07631387 -0.19756408 0.0048117037 -0.1377212
-0.26716644 -0.22717486 0.018561175 -0.13392018 0.03519688 -0.13693725 0.083341755 -0.18745697
0.008094546 -0.17021798 -0.19691478 -0.17597482 -0.18541172 -0.12340871 0.1470408 0.023462566
00000000: 8b37 2d3d 3026 9bba 777b 51be 873d fcbd
00000010: 1cb4 983c 4b17 37be e6b7 633d c359 fe3d
00000020: 75ab 8d3d aa84 53be 9633 f13d d807 10be
00000030: 724a 9c3d 3d4e 4abe 7fab 9d3b c906 0dbe
00000040: 0aca 88be 87a0 68be 9b0d 983c 5f22 09be
00000050: 9b2a 103d 4739 0cbe 15af aa3d b8f4 3fbe
00000060: fd9e 043c 9f4d 2ebe 07a4 49be be32 34be
00000070: 92dc 3dbe b5bd fcbd dd91 163e 9134 c03c
